…
[19:23:45.178901] Copied scripts/train_shape_chair.sh to output/ldm/shapenet/car/code/scripts/train_shape_chair.sh
[19:23:45.178939] Copied scripts/train_shape_plane.sh to output/ldm/shapenet/car/code/scripts/train_shape_plane.sh
[19:23:45.178971] Copied util/emd/emd.cpp to output/ldm/shapenet/car/code/util/emd/emd.cpp
[19:23:45.179008] Copied util/emd/emd_cuda.cu to output/ldm/shapenet/car/code/util/emd/emd_cuda.cu
[19:23:46.506003] Loading autoencoder output/vae/shapenet/vae_car_full/ckpt/checkpoint-999.pth
[19:23:48.495465] Model = EDMPrecond(
  (model): LatentArrayTransformer(
    (proj_in): Linear(in_features=16, out_features=512, bias=False)
    (transformer_blocks): ModuleList(
      (0-23): 24 x BasicTransformerBlock(
        (attn1): CrossAttention(
          (to_q): Linear(in_features=512, out_features=512, bias=False)
          (to_k): Linear(in_features=512, out_features=512, bias=False)
          (to_v): Linear(in_features=512, out_features=512, bias=False)
          (to_out): Sequential(
            (0): Linear(in_features=512, out_features=512, bias=True)
            (1): Dropout(p=0.0, inplace=False)
          )
        )
        (ff): FeedForward(
          (net): Sequential(
            (0): GEGLU(
              (proj): Linear(in_features=512, out_features=4096, bias=True)
            )
            (1): Dropout(p=0.0, inplace=False)
            (2): Linear(in_features=2048, out_features=512, bias=True)
          )
        )
        (attn2): CrossAttention(
          (to_q): Linear(in_features=512, out_features=512, bias=False)
          (to_k): Linear(in_features=512, out_features=512, bias=False)
          (to_v): Linear(in_features=512, out_features=512, bias=False)
          (to_out): Sequential(
            (0): Linear(in_features=512, out_features=512, bias=True)
            (1): Dropout(p=0.0, inplace=False)
          )
        )
        (norm1): AdaLayerNorm(
          (silu): SiLU()
          (linear): Linear(in_features=512, out_features=1024, bias=True)
          (layernorm): LayerNorm((512,), eps=1e-05, elementwise_affine=False)
        )
        (norm2): AdaLayerNorm(
          (silu): SiLU()
          (linear): Linear(in_features=512, out_features=1024, bias=True)
          (layernorm): LayerNorm((512,), eps=1e-05, elementwise_affine=False)
        )
        (norm3): AdaLayerNorm(
          (silu): SiLU()
          (linear): Linear(in_features=512, out_features=1024, bias=True)
          (layernorm): LayerNorm((512,), eps=1e-05, elementwise_affine=False)
        )
        (ls1): Identity()
        (drop_path1): Identity()
        (ls2): Identity()
        (drop_path2): Identity()
        (ls3): Identity()
        (drop_path3): Identity()
      )
    )
    (norm): LayerNorm((512,), eps=1e-05, elementwise_affine=True)
    (proj_out): Linear(in_features=512, out_features=16, bias=False)
    (map_noise): PositionalEmbedding()
    (map_layer0): Linear(in_features=256, out_features=512, bias=True)
    (map_layer1): Linear(in_features=512, out_features=512, bias=True)
  )
)
[19:23:48.495481] number of params (M): 164.20
[19:23:48.495487] actual lr: 1.00e-04
[19:23:48.495489] accumulate grad iterations: 1
[19:23:48.495491] effective batch size: 27
[19:23:48.496149] criterion = <models_class_cond_profile_nvtx.EDMLoss object at 0x7fb7cdf06b40>
[19:23:48.496155] Start training for 1000 epochs
[19:23:48.497414] log_dir: output/ldm/shapenet/car
…
