…
[23:23:04.381421] Copied profiler/profile_nvtx_vae_log.txt to output/ldm/shapenet/car/code/profiler/profile_nvtx_vae_log.txt
[23:23:04.381568] Copied scripts/train_shape_car.sh to output/ldm/shapenet/car/code/scripts/train_shape_car.sh
[23:23:04.381624] Copied scripts/train_shape_plane.sh to output/ldm/shapenet/car/code/scripts/train_shape_plane.sh
[23:23:04.381688] Copied util/emd/emd_cuda.cu to output/ldm/shapenet/car/code/util/emd/emd_cuda.cu
[23:23:06.041364] Loading autoencoder output/vae/shapenet/vae_car_full/ckpt/checkpoint-999.pth
[23:23:08.076501] Model = EDMPrecond(
  (model): LatentArrayTransformer(
    (proj_in): Linear(in_features=16, out_features=512, bias=False)
    (transformer_blocks): ModuleList(
      (0-23): 24 x BasicTransformerBlock(
        (attn1): CrossAttention(
          (to_q): Linear(in_features=512, out_features=512, bias=False)
          (to_k): Linear(in_features=512, out_features=512, bias=False)
          (to_v): Linear(in_features=512, out_features=512, bias=False)
          (to_out): Sequential(
            (0): Linear(in_features=512, out_features=512, bias=True)
            (1): Dropout(p=0.0, inplace=False)
          )
        )
        (ff): FeedForward(
          (net): Sequential(
            (0): GEGLU(
              (proj): Linear(in_features=512, out_features=4096, bias=True)
            )
            (1): Dropout(p=0.0, inplace=False)
            (2): Linear(in_features=2048, out_features=512, bias=True)
          )
        )
        (attn2): CrossAttention(
          (to_q): Linear(in_features=512, out_features=512, bias=False)
          (to_k): Linear(in_features=512, out_features=512, bias=False)
          (to_v): Linear(in_features=512, out_features=512, bias=False)
          (to_out): Sequential(
            (0): Linear(in_features=512, out_features=512, bias=True)
            (1): Dropout(p=0.0, inplace=False)
          )
        )
        (norm1): AdaLayerNorm(
          (silu): SiLU()
          (linear): Linear(in_features=512, out_features=1024, bias=True)
          (layernorm): LayerNorm((512,), eps=1e-05, elementwise_affine=False)
        )
        (norm2): AdaLayerNorm(
          (silu): SiLU()
          (linear): Linear(in_features=512, out_features=1024, bias=True)
          (layernorm): LayerNorm((512,), eps=1e-05, elementwise_affine=False)
        )
        (norm3): AdaLayerNorm(
          (silu): SiLU()
          (linear): Linear(in_features=512, out_features=1024, bias=True)
          (layernorm): LayerNorm((512,), eps=1e-05, elementwise_affine=False)
        )
        (ls1): Identity()
        (drop_path1): Identity()
        (ls2): Identity()
        (drop_path2): Identity()
        (ls3): Identity()
        (drop_path3): Identity()
      )
    )
    (norm): LayerNorm((512,), eps=1e-05, elementwise_affine=True)
    (proj_out): Linear(in_features=512, out_features=16, bias=False)
    (map_noise): PositionalEmbedding()
    (map_layer0): Linear(in_features=256, out_features=512, bias=True)
    (map_layer1): Linear(in_features=512, out_features=512, bias=True)
  )
)
[23:23:08.076516] number of params (M): 164.20
[23:23:08.076521] actual lr: 1.00e-04
[23:23:08.076523] accumulate grad iterations: 1
[23:23:08.076524] effective batch size: 27
[23:23:08.077173] criterion = <models_class_cond_profile_nvtx.EDMLoss object at 0x7f940c2e97c0>
[23:23:08.077179] Start training for 1000 epochs
[23:23:08.078415] log_dir: output/ldm/shapenet/car
…
