…
[18:08:47.156453] Copied sample_class_cond_cfg.py to output/ldm/shapenet/car/code/sample_class_cond_cfg.py
[18:08:47.156483] Copied scripts/ldm/train_dgx.sh to output/ldm/shapenet/car/code/scripts/ldm/train_dgx.sh
[18:08:47.156512] Copied scripts/vae/train_dgx.sh to output/ldm/shapenet/car/code/scripts/vae/train_dgx.sh
[18:08:47.156542] Copied util/emd/README.md to output/ldm/shapenet/car/code/util/emd/README.md
[18:08:47.156583] Copied util/misc.py to output/ldm/shapenet/car/code/util/misc.py
[18:08:48.944969] Loading autoencoder output/vae/shapenet/vae_car_full/ckpt/checkpoint-999.pth
[18:08:50.633821] Model = EDMPrecond(
  (model): LatentArrayTransformer(
    (proj_in): Linear(in_features=16, out_features=512, bias=False)
    (transformer_blocks): ModuleList(
      (0-23): 24 x BasicTransformerBlock(
        (attn1): CrossAttention(
          (to_q): Linear(in_features=512, out_features=512, bias=False)
          (to_k): Linear(in_features=512, out_features=512, bias=False)
          (to_v): Linear(in_features=512, out_features=512, bias=False)
          (to_out): Sequential(
            (0): Linear(in_features=512, out_features=512, bias=True)
            (1): Dropout(p=0.0, inplace=False)
          )
        )
        (ff): FeedForward(
          (net): Sequential(
            (0): GEGLU(
              (proj): Linear(in_features=512, out_features=4096, bias=True)
            )
            (1): Dropout(p=0.0, inplace=False)
            (2): Linear(in_features=2048, out_features=512, bias=True)
          )
        )
        (attn2): CrossAttention(
          (to_q): Linear(in_features=512, out_features=512, bias=False)
          (to_k): Linear(in_features=512, out_features=512, bias=False)
          (to_v): Linear(in_features=512, out_features=512, bias=False)
          (to_out): Sequential(
            (0): Linear(in_features=512, out_features=512, bias=True)
            (1): Dropout(p=0.0, inplace=False)
          )
        )
        (norm1): AdaLayerNorm(
          (silu): SiLU()
          (linear): Linear(in_features=512, out_features=1024, bias=True)
          (layernorm): LayerNorm((512,), eps=1e-05, elementwise_affine=False)
        )
        (norm2): AdaLayerNorm(
          (silu): SiLU()
          (linear): Linear(in_features=512, out_features=1024, bias=True)
          (layernorm): LayerNorm((512,), eps=1e-05, elementwise_affine=False)
        )
        (norm3): AdaLayerNorm(
          (silu): SiLU()
          (linear): Linear(in_features=512, out_features=1024, bias=True)
          (layernorm): LayerNorm((512,), eps=1e-05, elementwise_affine=False)
        )
        (ls1): Identity()
        (drop_path1): Identity()
        (ls2): Identity()
        (drop_path2): Identity()
        (ls3): Identity()
        (drop_path3): Identity()
      )
    )
    (norm): LayerNorm((512,), eps=1e-05, elementwise_affine=True)
    (proj_out): Linear(in_features=512, out_features=16, bias=False)
    (map_noise): PositionalEmbedding()
    (map_layer0): Linear(in_features=256, out_features=512, bias=True)
    (map_layer1): Linear(in_features=512, out_features=512, bias=True)
  )
)
[18:08:50.633838] number of params (M): 164.20
[18:08:50.633843] actual lr: 1.00e-04
[18:08:50.633845] accumulate grad iterations: 1
[18:08:50.633846] effective batch size: 27
[18:08:50.634645] criterion = <models_class_cond.EDMLoss object at 0x7f69f94a1b50>
[18:08:50.634652] Start training for 1000 epochs
[18:08:50.646232] log_dir: output/ldm/shapenet/car
…
