…
[17:33:20.049539] Copied sample_class_cond_cfg.py to output/ldm/shapenet/car/code/sample_class_cond_cfg.py
[17:33:20.049570] Copied scripts/ldm/train_dgx.sh to output/ldm/shapenet/car/code/scripts/ldm/train_dgx.sh
[17:33:20.049600] Copied scripts/vae/train_dgx.sh to output/ldm/shapenet/car/code/scripts/vae/train_dgx.sh
[17:33:20.049630] Copied util/emd/README.md to output/ldm/shapenet/car/code/util/emd/README.md
[17:33:20.049671] Copied util/misc.py to output/ldm/shapenet/car/code/util/misc.py
[17:33:21.875946] Loading autoencoder output/vae/shapenet/vae_car_full/ckpt/checkpoint-999.pth
[17:33:23.574350] Model = EDMPrecond(
  (model): LatentArrayTransformer(
    (proj_in): Linear(in_features=16, out_features=512, bias=False)
    (transformer_blocks): ModuleList(
      (0-23): 24 x BasicTransformerBlock(
        (attn1): CrossAttention(
          (to_q): Linear(in_features=512, out_features=512, bias=False)
          (to_k): Linear(in_features=512, out_features=512, bias=False)
          (to_v): Linear(in_features=512, out_features=512, bias=False)
          (to_out): Sequential(
            (0): Linear(in_features=512, out_features=512, bias=True)
            (1): Dropout(p=0.0, inplace=False)
          )
        )
        (ff): FeedForward(
          (net): Sequential(
            (0): GEGLU(
              (proj): Linear(in_features=512, out_features=4096, bias=True)
            )
            (1): Dropout(p=0.0, inplace=False)
            (2): Linear(in_features=2048, out_features=512, bias=True)
          )
        )
        (attn2): CrossAttention(
          (to_q): Linear(in_features=512, out_features=512, bias=False)
          (to_k): Linear(in_features=512, out_features=512, bias=False)
          (to_v): Linear(in_features=512, out_features=512, bias=False)
          (to_out): Sequential(
            (0): Linear(in_features=512, out_features=512, bias=True)
            (1): Dropout(p=0.0, inplace=False)
          )
        )
        (norm1): AdaLayerNorm(
          (silu): SiLU()
          (linear): Linear(in_features=512, out_features=1024, bias=True)
          (layernorm): LayerNorm((512,), eps=1e-05, elementwise_affine=False)
        )
        (norm2): AdaLayerNorm(
          (silu): SiLU()
          (linear): Linear(in_features=512, out_features=1024, bias=True)
          (layernorm): LayerNorm((512,), eps=1e-05, elementwise_affine=False)
        )
        (norm3): AdaLayerNorm(
          (silu): SiLU()
          (linear): Linear(in_features=512, out_features=1024, bias=True)
          (layernorm): LayerNorm((512,), eps=1e-05, elementwise_affine=False)
        )
        (ls1): Identity()
        (drop_path1): Identity()
        (ls2): Identity()
        (drop_path2): Identity()
        (ls3): Identity()
        (drop_path3): Identity()
      )
    )
    (norm): LayerNorm((512,), eps=1e-05, elementwise_affine=True)
    (proj_out): Linear(in_features=512, out_features=16, bias=False)
    (map_noise): PositionalEmbedding()
    (map_layer0): Linear(in_features=256, out_features=512, bias=True)
    (map_layer1): Linear(in_features=512, out_features=512, bias=True)
  )
)
[17:33:23.574367] number of params (M): 164.20
[17:33:23.574372] actual lr: 1.00e-04
[17:33:23.574374] accumulate grad iterations: 1
[17:33:23.574375] effective batch size: 27
[17:33:23.575185] criterion = <models_class_cond.EDMLoss object at 0x7f98f80bb140>
[17:33:23.575192] Start training for 1000 epochs
[17:33:23.586853] log_dir: output/ldm/shapenet/car
…
